…
2024-03-05 20:54:59,855 - ERROR - STDERR - model.safetensors: 100%|#########9| 1.11G/1.12G [01:38<00:00, 11.1MB/s]
2024-03-05 20:55:00,214 - ERROR - STDERR - 
2024-03-05 20:55:00,215 - ERROR - STDERR - model.safetensors: 100%|##########| 1.12G/1.12G [01:38<00:00, 11.2MB/s]
2024-03-05 20:55:00,219 - ERROR - STDERR - 
2024-03-05 20:55:00,220 - ERROR - STDERR - model.safetensors: 100%|##########| 1.12G/1.12G [01:38<00:00, 11.3MB/s]
2024-03-05 20:57:06,344 - INFO - machamp.model.machamp - Overview of the torch model: 
2024-03-05 20:57:06,347 - INFO - machamp.model.machamp - MachampModel(
  (mlm): XLMRobertaModel(
    (embeddings): XLMRobertaEmbeddings(
      (word_embeddings): Embedding(250002, 768, padding_idx=1)
      (position_embeddings): Embedding(514, 768, padding_idx=1)
      (token_type_embeddings): Embedding(1, 768)
      (LayerNorm): LayerNorm((768,), eps=1e-05, elementwise_affine=True)
      (dropout): Dropout(p=0.1, inplace=False)
    )
    (encoder): XLMRobertaEncoder(
      (layer): ModuleList(
        (0-11): 12 x XLMRobertaLayer(
          (attention): XLMRobertaAttention(
            (self): XLMRobertaSelfAttention(
              (query): Linear(in_features=768, out_features=768, bias=True)
              (key): Linear(in_features=768, out_features=768, bias=True)
              (value): Linear(in_features=768, out_features=768, bias=True)
              (dropout): Dropout(p=0.1, inplace=False)
            )
            (output): XLMRobertaSelfOutput(
              (dense): Linear(in_features=768, out_features=768, bias=True)
              (LayerNorm): LayerNorm((768,), eps=1e-05, elementwise_affine=True)
              (dropout): Dropout(p=0.1, inplace=False)
            )
          )
          (intermediate): XLMRobertaIntermediate(
            (dense): Linear(in_features=768, out_features=3072, bias=True)
            (intermediate_act_fn): GELUActivation()
          )
          (output): XLMRobertaOutput(
            (dense): Linear(in_features=3072, out_features=768, bias=True)
            (LayerNorm): LayerNorm((768,), eps=1e-05, elementwise_affine=True)
            (dropout): Dropout(p=0.1, inplace=False)
          )
        )
      )
    )
    (pooler): XLMRobertaPooler(
      (dense): Linear(in_features=768, out_features=768, bias=True)
      (activation): Tanh()
    )
  )
  (dropout): Dropout(p=0.2, inplace=False)
  (decoders): ModuleDict(
    (dependency): MachampDepDecoder(
      (head_arc_feedforward): Linear(in_features=768, out_features=768, bias=True)
      (child_arc_feedforward): Linear(in_features=768, out_features=768, bias=True)
      (arc_attention): BilinearMatrixAttention()
      (head_tag_feedforward): Linear(in_features=768, out_features=256, bias=True)
      (child_tag_feedforward): Linear(in_features=768, out_features=256, bias=True)
      (tag_bilinear): Bilinear(in1_features=256, in2_features=256, out_features=30, bias=True)
      (decoder_dropout): Dropout(p=0.0, inplace=False)
    )
    (upos): MachampSeqDecoder(
      (hidden_to_label): Linear(in_features=768, out_features=17, bias=True)
      (loss_function): CrossEntropyLoss()
      (decoder_dropout): Dropout(p=0.0, inplace=False)
    )
  )
  (scalars): ModuleDict(
    (dependency): None
    (upos): None
  )
  (dataset_embedder): Embedding(1, 768)
)
2024-03-05 20:57:06,427 - INFO - machamp.utils.myutils - Done constructing parameter groups.
2024-03-05 20:57:06,427 - INFO - machamp.utils.myutils - Group 0: ['mlm.encoder.layer.6.output.LayerNorm.weight', 'mlm.encoder.layer.1.attention.self.query.weight', 'mlm.encoder.layer.5.attention.output.dense.weight', 'mlm.encoder.layer.11.attention.self.key.bias', 'mlm.encoder.layer.6.attention.
…
